best_model/best_model.pt (torch, 53531 bytes, 11 tensors)

actor.0.weight f4 [64, 26]
00000000: ffb3 d13e 7e7c 733e b9dc 0e3f ede4 8bbe
00000010: dd91 3cbd 3315 bcbe 842a 08bf e0cb 73bd
00000020: 2f3e 4ebe 1464 183e 0cf7 9a3d c28a 543d
00000030: e3c0 3cbd f327 2c3f dd23 053f 9bdb ce3e
00000040: 4c67 8a3e d7b8 9a3e 190d e83d ea76 d73e
00000050: 229d d93e 6c7c 29be 2600 dabd f444 0e3f
00000060: 8791 5e3f 9a32 ef3e eae8 e5be 050b 0140
00000070: 742d 8d3e da42 073f 624a 733e 5743 acbe
00000080: c2df 653f 1857 dc3e 4148 1e3e 0e96 843e
00000090: 35a6 0abe 5ffb 143d 8d3e 9b3f 1564 773e
000000a0: 8029 03bf 08e7 0f3e b16c b63e 1cb2 ff3e
000000b0: 221b 473f 9971 2b3f 7f70 12be d2c8 79bf
000000c0: 4c47 e4be 81b0 af3e f59a f7bf eb45 efbe
000000d0: 2bd3 3a3e 42be bbbe 9493 093f 9725 14be
000000e0: ed63 f23e d7df d8be 7e9c cabd d955 16bd
000000f0: a862 7a3e 84cd 83be 8cf8 ed3d fe73 29be
00000100: fdaa 49c1 7b52 193f a7ac 523f 10b8 453e
00000110: 8f44 3ebe f5c9 b1be 0586 09be 83c5 03bf
00000120: d573 e8bd b890 db3d 5311 833e e88f 943e
00000130: 494d 0fbe 13c4 0abf 28fd 09bf 327a a83e
00000140: 9c4c 08be a1da 2d3f 3945 c83e 647c 1ebc
00000150: 56d4 15be 008a 393f c87b 0c3f 5420 a4bd
00000160: a616 c73d 5e2f 123f f82e 40bf 0d11 aa3e
00000170: aea3 9abe 1a52 a5be 1a5b 91be ef82 54be
00000180: 42c4 dd3b 857d 52be bb15 38be 9128 7fbf
00000190: 35b0 35bd 68fb ca3e dee6 48bd 2c06 64bf
000001a0: 3520 023e 6a7a 4a3f e169 2c3f 6ce8 51bd
000001b0: f5af 923e cf37 20bf c68e 96be 290c 323e
000001c0: ba21 07be dfd2 a6bd c741 2ebd 785e 403e
000001d0: 7da4 f1be 65c1 22bd 3b6c 0abe a17d 993e
000001e0: 0d95 22be 1e54 26be 8af7 49bd 6a16 e33d
000001f0: 0c44 833c 7092 b53d bad1 71be 9ff5 01bf
00000200: 2df2 083f 47ff 90bf b010 12bf f7cb 9c3e
00000210: 2fa2 b3be 024d 273f dcca 053f 8cb8 da3e
00000220: 0c89 073c 5017 e43d 7aff 5b3e 589b 29be
00000230: 10b4 28be 942a 6bbd 792d a23e 83bc 86bd
00000240: cbcb 28be 851c 84be 4783 463e 27ba b4bd
00000250: 4197 44bf 0396 3ebf 5904 89bf 68ec 2abf
00000260: 9f55 173f b54a 293f 6813 eebe 4a04 1ebe
00000270: ce37 1bbf 1c47 af3f e3a6 453d 13a0 473e
00000280: 9448 a93f ba16 35bf 0a6c db3d 9dfa 013f
00000290: d5f2 bfbd 640a 723e e6e2 babd d7d7 8abe
000002a0: 1ed0 673f 4747 adbe 6c33 483d d5f2 46be
000002b0: bf28 fe3e a472 883f 84d4 1b3e bbf3 debd
000002c0: 4b9b 5b3d f553 723f a288 54bd c3ab 86be
000002d0: 567f 303f 5cfc 24bf ad12 4ebd a725 5040
000002e0: 3795 3d3f 4550 343e 30ce 973e e0da 67bf
000002f0: b445 3cbf 7b2a 0040 78be 13bf 4d3e 833e
00000300: a606 cb3c 4849 893b 8872 8a3f 5f39 a13e
00000310: 1278 24bf c434 5cbe dc82 c23e e2ee 953e
00000320: a59d b83e 39e9 933f d388 ca3e 5a2d b6bf
00000330: 44f1 cebc 363e e4be 4455 49bf 5ab2 a8be
00000340: 442f 153e a26f 87bf ab74 ad3e c53d 26bf
00000350: 62e8 623f 030e 08bf f345 18bf 8e23 57be
00000360: 040a be3d 66dd 50be 735a d2bd d9af 933d
00000370: 32d2 c03e 12ac c03f 7d7e 9f3f 0aef afbe
00000380: c767 30c0 b352 dcbf 16ab 8bbf dfcd 12bf
00000390: f433 e8b9 2125 13bf 47fa fa3e d5b5 453f
000003a0: fa32 debd d622 273f e47f e5be 312c 3abf
000003b0: e9f4 83be f401 52bf 3121 ba3f 2bd5 793e
000003c0: fa92 aebe 0eab 313f cfc5 1ebe 8aca 013e
000003d0: 950f cd3a 0a2c 17bd e243 5abf 5a21 10bf
000003e0: 318c b7be aab5 72bf 9476 55bf 28d0 38bf
000003f0: 44de 4bbf 95ff b9be 7b92 e7bc 6438 44bc
0.4095764 0.23777959 0.55805546 -0.27323094 -0.046037544 -0.36734924 -0.53189874 -0.059520602
-0.20140909 0.14881927 0.07566652 0.051890142 -0.04608239 0.6724846 0.5200785 0.4040192
0.27031934 0.30219147 0.11330623 0.42082912 0.42502695 -0.1655137 -0.106445596 0.55573964
0.8694081 0.46718293 -0.44904262 2.0162976 0.2757374 0.5283638 0.23758844 -0.33645126
0.8979455 0.43035197 0.1545725 0.25895733 -0.13539965 0.03637254 1.2128464 0.24159272
-0.512352 0.14052975 0.356298 0.49940574 0.77775776 0.6697021 -0.14300726 -0.9757205
-0.44585645 0.3431435 -1.9344164 -0.4673303 0.18244617 -0.36668593 0.5374081 -0.14467464
0.47341862 -0.42358276 -0.0989313 -0.036702964 0.24451697 -0.25742733 0.11619672 -0.16548154
-12.604245 0.5989148 0.82294697 0.19308496 -0.1858084 -0.34724393 -0.1343003 -0.51473254
-0.11350218 0.10720962 0.25599155 0.29016042 -0.13994326 -0.54205436 -0.5390191 0.32905728
-0.13310474 0.67911726 0.39115313 -0.009673212 -0.14631781 0.72476196 0.54876375 -0.080139786
0.09721117 0.57103527 -0.7507167 0.33216134 -0.30203003 -0.322892 -0.28389817 -0.20753072
0.0067677805 -0.20555694 -0.1797704 -0.99671274 -0.044357497 0.39644933 -0.049048297 -0.8907192
0.12707599 0.7909304 0.6734906 -0.051247045 0.2864987 -0.6258516 -0.29405802 0.17387451
-0.1319646 -0.08145689 -0.0425432 0.18786037 -0.47195807 -0.039735217 -0.13517849 0.2997866
-0.15877171 -0.16243026 -0.049308337 0.110882595 0.016023658 0.08865821 -0.2361516 -0.50765413
0.5349453 -1.1327904 -0.57056713 0.30624363 -0.35084674 0.6535188 0.52262664 0.42718923
0.008272421 0.11137259 0.21484175 -0.16563165 -0.16474938 -0.057413653 0.31675318 -0.065789245
-0.16483991 -0.2580301 0.19386016 -0.08824568 -0.76793295 -0.7444765 -1.0704452 -0.6676698
0.5911502 0.6612962 -0.4649918 -0.15431324 -0.60632026 1.3693576 0.04825486 0.19494657
1.3225274 -0.70737803 0.10713966 0.5077303 -0.093724884 0.23636776 -0.09125309 -0.27117798
0.90551937 -0.33843443 0.048877165 -0.1942857 0.49640462 1.0659986 0.15217787 -0.10886332
0.053614896 0.9465936 -0.051888116 -0.2630292 0.689443 -0.6444757 -0.05031078 3.252298
0.7405581 0.17608745 0.29649496 -0.9056835 -0.7354386 2.0025928 -0.5771251 0.2563347
0.024783444 0.004189644 1.0816202 0.31489083 -0.6424571 -0.21504503 0.37990463 0.29283816
0.36057773 1.1555549 0.39557514 -1.423259 -0.025261529 -0.44578713 -0.7864573 -0.3294857
0.14568812 -1.0580943 0.33878073 -0.64938 0.8863584 -0.5314638 -0.59481734 -0.21009657
0.09279254 -0.20396957 -0.10271158 0.07211275 0.37660366 1.5052512 1.2460476 -0.3436206
-2.756334 -1.7212738 -1.0911586 -0.57345384 -0.00044289196 -0.5747853 0.4901907 0.7723058
-0.10849567 0.6528753 -0.44824135 -0.7272368 -0.2577279 -0.8203423 1.4541379 0.24397723
-0.3409651 0.69401634 -0.15505145 0.12674919 0.0015644903 -0.036907233 -0.8525983 -0.5630089
-0.35849145 -0.9480845 -0.8338406 -0.7219262 -0.79636025 -0.36327806 -0.02826809 -0.011976335

actor.0.bias f4 [64]
00000000: 8110 8b3f 0032 22be e5fb 46bd 88a9 a03e
00000010: ee35 863f 2ba5 973e a1a1 173e 25b6 01bd
00000020: 9917 47bf d14e 70be 56a3 9dbf 11fb e7bd
00000030: 45c5 783e 2a41 1cbe e14b 123e 36f1 88bf
00000040: d71a 21be 6f51 1fbf f0fb 4cbf 28af 313f
00000050: dc20 9cbf ab02 3d3f 826e 5d3f 9032 953f
00000060: 7609 04bf 06be 92bf 8b95 1e3f 7d36 5ebd
00000070: 7ad9 203f 20f9 dcbc d17a 71be b910 3cbf
00000080: 9e35 173f e7e3 34be 28bb 17be 0d57 2cbe
00000090: d3d5 8cbf e2c7 cabd 4f15 babe 2092 893e
000000a0: 1b4d c43d b55f 703f 00bb ef3d 99da 5ebf
000000b0: 40a2 96bf b3ac 8e3e f594 dc3d 45e9 3cbe
000000c0: 15d1 c1bd 2120 65bf b3cb 6bbf da43 283e
000000d0: b16e 903e 4c66 7e3f fe12 773e e0ec 053f
000000e0: bc14 15bf 059a 263f 9e14 a03f bdca 90bf
000000f0: f1af 563f f52b 07bf a05b 26bf 47cb 29be
1.0864412 -0.15839386 -0.04858007 0.31379342 1.0485208 0.296182 0.1480775 -0.031667847
-0.7777038 -0.23467566 -1.2315471 -0.11327184 0.24294002 -0.15259233 0.14286758 -1.0698612
-0.15732895 -0.6223363 -0.80071926 0.6940789 -1.2197528 0.73832196 0.86496747 1.1656055
-0.51576936 -1.146424 0.61946934 -0.054251183 0.6283184 -0.02697426 -0.23582007 -0.73463017
0.5906619 -0.17665063 -0.14817488 -0.16830082 -1.1002754 -0.09901406 -0.36344382 0.26869297
0.09585019 0.9389604 0.11705589 -0.87052304 -1.1768265 0.27866134 0.10770599 -0.1844836
-0.09463707 -0.8950215 -0.92107695 0.16432133 0.2820945 0.9937484 0.24128339 0.5231457
-0.58234763 0.65078765 1.2506292 -1.1311871 0.83862215 -0.5280145 -0.6498356 -0.1658145

actor.2.weight f4 [64, 64]
00000000: 9237 84be 02db 183f 1c43 8cbe 44f8 243f
00000010: aced 323e dc0f cc3e ad67 ae3e e948 283f
00000020: dc69 3cbf 9070 573e 4ada a03e a87f 363f
00000030: cb12 33be 5412 803f f800 6abf b5b5 55be
00000040: f16b 1d3f 8e4f 8dbe 2f70 2b3e 14f1 03bf
00000050: ff75 3abf bfda 74be 2728 9e3d 2683 46be
00000060: 02d9 c1bd 0c88 2cbf 15cb 0ac0 7ec8 f9bf
00000070: 360d b6bf c8fb 8abe c53c 983e 9744 12bf
00000080: c10c b4be 0d8f 133f 14e8 cebf 6222 923e
00000090: 2696 0ebf 1338 7f3e 1e23 e0be 7f19 fdbe
000000a0: e917 85be c697 883e 25cb c43e ff45 9e3f
000000b0: 5c0d 303f 2297 80bf ccc6 07bf 1ce4 9f3e
000000c0: 1b1a 88bf 64e2 71bf 5168 493f b2b7 23be
000000d0: 0690 1a3e 5ba3 553f 388f 74bf 7328 29bf
000000e0: 5a08 15bf 02c5 57bf e84d 31be 4d73 5abe
000000f0: 4658 1cbf 5ce0 8fbf d235 a8bf 261e c73d
00000100: ce48 a8bc d335 84bd 470e 52be 029e 84be
00000110: ebef 13bf 0d7f 21bf ba47 ffbe b707 8fbe
00000120: 0c21 6abf b0e0 bbbe 57e4 c83e da74 74be
00000130: 3689 1dbd cc01 94be 2747 8e3e b78d a6bd
00000140: 8c1a 31be 3330 38bf 4ba4 c4bd b20d 4ebf
00000150: 6c16 dcbd 73bc f23d 782d 1b3e c1a0 61bf
00000160: acae 58bf 97fc 6ebf fabf 7f3d 9154 8dbd
00000170: 8d7f 31bf 17c4 6bbe 1269 6dbf db0c cdbd
00000180: 7bc4 803d 1e7b 54be 231c f83e f836 013f
00000190: 5e18 b3be 13e9 45bf e8a8 e13c 1d30 0fbe
000001a0: 66b6 edbd d0f4 09bd c063 0cbe 219d 71bf
000001b0: 6cb4 f03e d0fb 743d c763 92be 13e1 f53d
000001c0: fb33 7abe 20c2 253d 5276 56bf c41a 01bf
000001d0: fa6c 0a3e e9d9 93be 761b fa3d e221 99be
000001e0: 1ff4 343d c3c0 a7be 5bb9 fcbe dda1 353e
000001f0: 55a3 b83d 595c 35bf aa05 1abf 2677 d1bc
00000200: a50f 2fbf b3fe dabe 48e5 d0bc fb54 08be
00000210: b087 f7be 5443 4ebd 111c ed3e 55a2 91bd
00000220: a85a 473e 16c1 5ebe 4a56 66bd 6b38 a9be
00000230: bcad ffbe 6458 36be ba7e a93b f8c1 4fbe
00000240: 7b89 f0bd 5dae b23e 3c4e 9bbd 8f91 6fbd
00000250: 3edc d3be 52e8 383c 79f0 f0bd 7f7e f93c
00000260: 7ea9 b4be 8aca f9bd f518 e5bc 195c d7bd
00000270: d015 fbbe e554 08bf 0a52 45bd 7281 d63c
00000280: be6f 05bf b5e3 f1be 7dc1 e23d d9e7 753d
00000290: b9c6 5fbd 3eef 95be f296 8a3e 7ee4 18bf
000002a0: f799 eebd 0faf 31be c39a f1bd b234 dfbe
000002b0: 9456 933d 5d97 7a3d 0682 80be 3783 623e
000002c0: 4510 6bbd 21c0 86be b5ed 95be 6196 00bf
000002d0: 0d22 a83e 4149 df3d 77f6 c23c 28fd c9bd
000002e0: b1f1 02bf eb84 01bf 8a58 19bf ae4b 9d3c
000002f0: b947 013d 0040 92bd 0de0 4a3e e783 133e
00000300: 85a4 5dbe a887 043f 8565 f5be 1e30 863f
00000310: faff 83be 6306 193f 0b00 1f3e 11f9 bdbb
00000320: 9fe8 63bf fbce d53e 303f 94be 9be3 593f
00000330: 2b9b cf3e 99b0 923f f789 87bf 5f1b babe
00000340: dfbb 383e 2694 9cbf 66e3 14be d5bb 64bf
00000350: c6e1 90bf f0a6 e53e 0345 5c3f ec27 523f
00000360: 77ff 88be afa7 9dbf 30f3 efbf dfb8 a4bf
00000370: 4278 10c0 e0e0 bbbe bd6b 593e b7a2 1cbe
00000380: 3f71 873e e678 683f d563 eabf 7810 1b3f
00000390: 2560 24bf 4a31 e53e 16f0 e8be ac38 37bf
000003a0: fdb2 763e 6548 8f3e 6278 cf3c 798a 283f
000003b0: d16e e03e 055e 7bbf ca2f 91bf 9b0d 8b3f
000003c0: 7af3 33c0 20c5 4cbf f41b 8a3e 97dd a0bf
000003d0: 1499 eb3e c61a 043f 35b0 08c0 4058 b6be
000003e0: d8f9 a8bf faac b9bf 20ae 67bd 13e3 38bf
000003f0: e3b9 c2bf e515 6abf 7c94 a0bf da0e c33e
-0.25823647 0.5970918 -0.2739495 0.64441323 0.17473477 0.3985585 0.34063473 0.6573625
-0.7359903 0.21039033 0.3141654 0.7128854 -0.17487638 1.0005593 -0.9140773 -0.20870097
0.6149283 -0.27599758 0.16742013 -0.5153973 -0.728363 -0.2391157 0.07722502 -0.19385967
-0.09465219 -0.6739509 -2.1686451 -1.951431 -1.4222782 -0.2714522 0.29733863 -0.5713591
-0.3516598 0.57640153 -1.6164575 0.28541857 -0.5569786 0.24923734 -0.43776792 -0.49433514
-0.25994805 0.26678294 0.38436237 1.2365111 0.68770385 -1.0046122 -0.53037715 0.3122872
-1.0632967 -0.9448607 0.786748 -0.15988043 0.15094003 0.83452386 -0.95531034 -0.66077346
-0.5821587 -0.84284985 -0.17314875 -0.21333046 -0.61072195 -1.1240344 -1.3141425 0.09722547
-0.020542528 -0.06455579 -0.20513259 -0.259018 -0.5778796 -0.6308449 -0.4985941 -0.27935573
-0.91456676 -0.3669486 0.3923671 -0.238727 -0.038460933 -0.2890762 0.2778866 -0.08132499
-0.17295283 -0.71948546 -0.09601649 -0.8048965 -0.10746464 0.1185235 0.15154064 -0.88135916
-0.8464153 -0.9335417 0.062438942 -0.069008954 -0.6933525 -0.23024021 -0.9273845 -0.100122176
0.06287476 -0.2075009 0.48458967 0.504745 -0.34979528 -0.7730877 0.027546361 -0.13983198
-0.11607055 -0.033680737 -0.13709927 -0.94380385 0.4701265 0.05981046 -0.2859175 0.1200582
-0.24433891 0.040468335 -0.8377429 -0.50431466 0.13518134 -0.2887719 0.12212269 -0.29908663
0.044178125 -0.32764253 -0.49360165 0.17737527 0.09015528 -0.70844036 -0.6016489 -0.02556951
-0.68383247 -0.42772445 -0.025499955 -0.13313667 -0.4834571 -0.050357178 0.46310475 -0.071110405
0.19468176 -0.21753344 -0.056234635 -0.33050856 -0.49937236 -0.17807156 0.0051725777 -0.20288837
-0.11744972 0.34898654 -0.075832814 -0.058488425 -0.4137897 0.011285858 -0.117646165 0.030455826
-0.35285562 -0.121968344 -0.027966002 -0.10515613 -0.4904008 -0.5325454 -0.04817394 0.026184771
-0.5212363 -0.4724404 0.11072061 0.06003556 -0.054632876 -0.2928409 0.27068287 -0.5972365
-0.1165046 -0.17351936 -0.117970966 -0.4359489 0.07194248 0.061179508 -0.250992 0.22120367
-0.057388563 -0.26318458 -0.2928292 -0.5022946 0.3283848 0.10902644 0.023799164 -0.09862739
-0.5115004 -0.5059344 -0.59900725 0.019201126 0.03156254 -0.07141113 0.19812031 0.14405786
-0.2164479 0.51769495 -0.47929016 1.0483434 -0.25781232 0.5977537 0.1552736 -0.0057975133
-0.89026827 0.41759476 -0.28954458 0.85112923 0.4054807 1.1460143 -1.0588979 -0.36349007
0.18040417 -1.2232711 -0.1453987 -0.8934911 -1.13189 0.44853926 0.86042804 0.82092166
-0.26757404 -1.2316798 -1.874609 -1.2868918 -2.25734 -0.36695004 0.21232505 -0.15296446
0.26453587 0.90809476 -1.8311716 0.60572004 -0.64209205 0.44764167 -0.4549567 -0.7157085
0.24091716 0.2798492 0.025325958 0.6583629 0.43834546 -0.9819034 -1.1342709 1.0863527
-2.8117356 -0.7998829 0.26974452 -1.2567624 0.46015227 0.51603353 -2.1357548 -0.35614204
-1.3201246 -1.4505913 -0.056562543 -0.7222149 -1.5212978 -0.9143966 -1.2545314 0.38097268

actor.2.bias f4 [64]
00000000: 37bb debe 0422 88be 721e e0be e995 e03e
00000010: eac0 5c3e c1be bfbe 9f6e 02bf 1634 1ebe
00000020: 1436 1cbf 76c1 4cbe cc77 30bf f61d 4cbe
00000030: 274d b23d f51b a3be 66a6 f3be 6850 b1be
00000040: 1400 53be e51f eebe bca9 583e a344 96be
00000050: 0740 03bc b77f 89bf 9351 91bd 3d2a a3be
00000060: b2c7 fcbe 6038 2bbd c438 78bf 2d7d d03d
00000070: ef57 95bb d45f e8bc d251 acbe c901 3bbf
00000080: 01ab 88be a656 d8bd 7e9a 63bf ff6e 693c
00000090: e4cc b9be 97a3 90be dcc2 07bf 46d3 63be
000000a0: 6ff5 c2bf 9edd dcbe 6628 a4bd c1ba a5be
000000b0: d724 3c3e 1c8a 663e f0c3 52bf cc18 35be
000000c0: 9b0d 15be be56 b23d 9256 78bf 042c 9b3c
000000d0: 03fe 08be 4ba8 37be 2fdd 87bf bc85 5dbf
000000e0: 220e 2cbf 0502 d8bd 0834 d2be 4137 2ebf
000000f0: ea3a dabf b126 4dbf fb15 2a3d 21f3 34bf
-0.4350221 -0.26588452 -0.43773228 0.43864372 0.21557966 -0.3745022 -0.50950044 -0.15449557
-0.61020017 -0.19995674 -0.68932796 -0.19933304 0.08706122 -0.31857267 -0.4758789 -0.34631658
-0.20605499 -0.4650871 0.21158499 -0.2934924 -0.008010871 -1.07421 -0.07095637 -0.31868163
-0.49371105 -0.04180181 -0.9696162 0.101801254 -0.0045576016 -0.028366007 -0.33656174 -0.730496
-0.26692966 -0.10563402 -0.8890761 0.014247655 -0.36289132 -0.2824981 -0.53031707 -0.22248563
-1.523115 -0.4313783 -0.08015518 -0.32369044 0.18373428 0.22513622 -0.82330227 -0.1768524
-0.14555971 0.08707951 -0.97007096 0.018941887 -0.13378148 -0.17935292 -1.0614375 -0.8653219
-0.67209065 -0.1054726 -0.41055322 -0.6805306 -1.7049229 -0.80137163 0.04152487 -0.70683485

actor.4.weight f4 [7, 64]
00000000: b45b 103f 9cb8 c63e a562 57bf 05c3 973e
00000010: 9219 c33e ac27 be3e 55af d8c0 762e 0d3f
00000020: b37d af3f 3100 8d3e b56d 9a3f a37b d13d
00000030: a80e 9a3d 980b 613d a90c 133f 3803 243e
00000040: 3cb0 0a40 58de b0bf 8264 03c1 1368 a33e
00000050: e828 f4be 2d36 4c3e 9363 b13e c8e0 ac3f
00000060: fb33 963e e615 ba3e 04d0 74bf 3ee5 843e
00000070: 6fe2 38be 046f 1fbd 31a7 a63e 7f24 89bf
00000080: 5b4d ae3c 318b 173f 1497 143e f27a 7c3f
00000090: b140 9c3c b5c0 6f3e 074c 14bf c5b7 cfbd
000000a0: f4ac dac0 7262 a53e 1976 2d3e 3757 ca3e
000000b0: eb1c 963e 7386 303e a54f 063e e979 633e
000000c0: 1992 863e e65e 293f 6d80 343d 10a0 00c1
000000d0: 4098 8f3e 3602 0a3e a6f1 26c0 9e82 b83e
000000e0: 96fa 823f ed1d d83e 001f 80bf b5d1 d13e
000000f0: bfde 783f bed6 4940 1b68 1fc0 deb6 63bd
00000100: 50cc 7a3e d6a0 b13d e416 e33d 0d9c ad3e
00000110: e739 8c3e 8260 7ec0 7858 703e eafb b13e
00000120: ef78 043f 36c3 c93e c199 6ebf 259b 61bf
00000130: 9379 2b40 cdb7 18be e12f 013f 8f58 a73e
00000140: 8de4 4c3c eaf8 553e 14e8 b63e 5a90 913e
00000150: 6b8d 91be 0d9e f340 52ea a33e 4fc0 90bf
00000160: 35ae aa3e b182 3a3e 2859 0740 96a8 afc0
00000170: f279 203c c734 1fc0 ca57 e2c0 69e6 8440
00000180: b89d 8d3e b760 313f d75d c23e 7da5 293e
00000190: bb72 54bf 0bd0 96be d133 8440 7995 c5bd
000001a0: be53 203f bdbd 9a3e 80e5 a7c0 dd19 c1c0
000001b0: 50ad a43e 0830 a03e 50bc 03be 368e b43e
000001c0: 19f1 893e bfbf 5a3f 8f71 6f3e d381 d63e
000001d0: 153b ddc0 f17e 57be 4334 1640 f1fd 6c40
000001e0: 8fac acbf 1588 cdc0 8357 7f3f 8f00 123f
000001f0: e9aa 15bf dba8 de3d e22b 8c3e 269f 60be
00000200: c7e2 9d3e 7c2e d93b 206d 9c3e aee2 c23e
00000210: dcab 203e bac4 b73e 4a25 b33e fc44 a03e
00000220: 28e5 27c0 f89a 903e c620 85c0 cd47 643d
00000230: 3537 2bbf a94a 273e 6055 2cc1 9e96 3e3e
00000240: 41fa 9dbe c109 73bd f44a d13e 6b17 953e
00000250: 0541 8dbd 481a 47c0 94e7 c13e 70a9 3abf
00000260: 9872 5c3e 29f6 ae3e ea4b 37c0 f25a 793e
00000270: 6792 fe3c e0c7 dc3d 556e a53e e753 adbf
00000280: c61e b5be 1269 113f bb68 ca3e 56b9 77c1
00000290: 1550 cf3e c038 0f3e bf2a d5bd 5ea1 6d3e
000002a0: 9346 a73e 0f29 273e ee53 a73d 546b ef3e
000002b0: 496f 733e a8c5 a23e 6489 65bc 43ef a33e
000002c0: e226 b53e d889 81c1 8cd6 913d 6a52 e33e
000002d0: fdac c43e 7ff5 2d3d 93cc 0e3f 7454 bfc0
000002e0: fcc2 87bf 786b c73e 8ae7 e13e 26de 7ec1
000002f0: dbca 793f cc97 193d fd68 ac3e 6566 55be
00000300: 8610 c23e 4f12 283e 5dd3 06bf 860a 853e
00000310: 0a73 973e 12ac 89be 5a57 9c3e 185f a43e
00000320: 4c09 253e 12f3 c73e 06c5 b240 ea79 4a3e
00000330: c0f5 19be 015b 1c3e a504 d33e 354c 6f3e
00000340: 1941 ba3e 436b 3c3e bb04 d63e 1cc3 9e3e
00000350: 714b 18be d624 15c0 1311 a23e fffd 8b40
00000360: 0c8e 0c3e d677 14c1 ab8a 2940 dfa0 5d3e
00000370: d721 283c ae0f 4b3e d726 e13e ba63 733e
00000380: 9136 a6bd a61b 3bc1 402b 873d d870 333f
00000390: c600 103e e382 50bd b756 adbf 722e 8c3d
000003a0: c5cd f43e e975 6a3d 1279 d63d 3688 b03e
000003b0: a889 c73e bce3 ca3e 3b80 9f3e d179 943d
000003c0: 9c0e 903e 309c 253f a354 263e ffa2 e53e
000003d0: eb8f 8f3e 8249 82bd a4c4 8fbe 637b 6440
000003e0: e4a1 4e40 8efb d23e 6b60 b4be d4f4 023f
000003f0: ca4f 86bf fb18 983d cd88 d53e 3a87 cd3d
0.5638993 0.3881272 -0.84134895 0.29640976 0.38105446 0.37139642 -6.771403 0.5514902
1.3710235 0.2753921 1.206473 0.1022866 0.07522327 0.054942697 0.5744119 0.16016853
2.1670065 -1.3817854 -8.212038 0.3191534 -0.4768746 0.19942541 0.34646282 1.3506098
0.29336533 0.36344832 -0.95629907 0.25956148 -0.18055128 -0.038924232 0.32549432 -1.0714263
0.02127712 0.59196764 0.14510757 0.986251 0.019073816 0.23413356 -0.5792851 -0.10142473
-6.8336124 0.3230167 0.16939582 0.39519665 0.29318938 0.17238788 0.1311632 0.22214474
0.2628334 0.6616043 0.04406779 -8.039078 0.28045845 0.13477406 -2.608499 0.36037153
1.0232723 0.42210332 -1.000946 0.40980306 0.97214884 3.1537318 -2.490729 -0.055594318
0.24492002 0.08673255 0.110883504 0.3390812 0.27387926 -3.9746404 0.23471248 0.34762508
0.5174703 0.39406747 -0.9320336 -0.88127357 2.6792953 -0.14913864 0.5046368 0.32684752
0.012505663 0.20895734 0.35723937 0.28430444 -0.28428206 7.6130433 0.3201471 -1.1308688
0.33336034 0.18213917 2.1148167 -5.4893293 0.009794699 -2.4875963 -7.0732164 4.1531262
0.27659392 0.692882 0.3796222 0.16567035 -0.82987565 -0.294556 4.1313252 -0.0964765
0.6262778 0.30222884 -5.246765 -6.034407 0.32163477 0.31286645 -0.12864804 0.35264748
0.26941755 0.8544883 0.23383163 0.41895923 -6.913462 -0.21044518 2.3469398 3.7029994
-1.3490161 -6.4228616 0.9974291 0.570321 -0.58463913 0.108720504 0.2737723 -0.2193571
0.3083708 0.006627856 0.30552006 0.38063568 0.15690559 0.35892278 0.34989387 0.3130263
-2.6233616 0.28243232 -4.1602507 0.055732537 -0.66881114 0.16337074 -10.7708435 0.18612143
-0.3085499 -0.059335474 0.40877497 0.2911943 -0.06897167 -3.110979 0.37871993 -0.7291479
0.21528089 0.3417218 -2.8640084 0.24351099 0.03107567 0.10780311 0.3231074 -1.354123
-0.3537504 0.5680095 0.39533028 -15.482748 0.40490785 0.13986492 -0.10408544 0.23206088
0.3267103 0.16324256 0.08170305 0.46761572 0.2377292 0.31791425 -0.014009807 0.3201848
0.35381228 -16.192307 0.07121 0.44398814 0.3841323 0.04247045 0.55780905 -5.979059
-1.060638 0.3894918 0.44121963 -15.929235 0.9757516 0.03749828 0.3367385 -0.20839842
0.3790323 0.16413234 -0.52666265 0.2598459 0.29579955 -0.26889092 0.30535394 0.321038
0.16116828 0.39052635 5.5865507 0.19773069 -0.15035152 0.1526909 0.4121448 0.23368914
0.3637779 0.18400292 0.41800484 0.31008232 -0.14872529 -2.3303733 0.31653652 4.3747554
0.13726062 -9.279257 2.6490886 0.21643399 0.010261974 0.198302 0.43974945 0.23768511
-0.081158765 -11.69425 0.06600046 0.7009406 0.14062795 -0.050906073 -1.3542088 0.06844796
0.4781324 0.057241354 0.10472311 0.3447892 0.3897221 0.39626873 0.3115252 0.07249797
0.28136146 0.6469145 0.16243224 0.4485092 0.28039488 -0.06361677 -0.28079712 3.570031
3.228631 0.41207546 -0.3522981 0.5115483 -1.04931 0.0742664 0.41705933 0.10035558

actor.4.bias f4 [7]
00000000: 5ea8 37bc e3c8 903e 1c17 253e 3dcc d63e
00000010: 4e11 923c 7427 c63d 13bb 37bf
-0.011209575 0.28278264 0.16122097 0.41952696 0.017830517 0.09675494 -0.7176983

critic.0.weight f4 [64, 26]
00000000: 786d e6be 4544 a2c0 6904 4bbf 428a 65bf
00000010: 8ebb 07c0 b85c 79be 72bb 00be d059 643d
00000020: 7236 51be 8280 9cbe d291 00be 6500 3e3e
00000030: 7c7f d4bf 1d5e d5bf d842 a1bf ae63 c7bf
00000040: 744a d6bf ccf7 83be 9e8c 503f e9bd 2c3e
00000050: 65bf 42bf b201 24bf 17be fcbe 0b77 053e
00000060: 2564 19bf 71b0 33bf 3f6c 813f 70be 41c0
00000070: d92b 203e 8da6 8abf 5669 e1bf 41bd a8be
00000080: 8914 a1be 316f ddbe 4916 803c c83e 193e
00000090: 5ff5 163d 532d aabd 9e11 283e 498a 593f
000000a0: 89d4 9c3f 41a9 c33f 0eef 273f f291 183f
000000b0: 0dce 063f 9d6b 1f3e c8a2 a43e 6f31 9a3e
000000c0: fab2 2b3e 0a9b 243f f4fe 1f3f e734 5e3f
000000d0: 042f 18bf 241f 7d40 f448 12be 6f10 28be
000000e0: d714 afbd 9050 3cbe ec8b 6b3e f9db ae3d
000000f0: 72a8 673f f532 b5bd 7c87 c63d 6cb4 273f
00000100: 9405 fbbf b111 293f 4854 773f 6f02 f43f
00000110: fdae 803f 7389 5f40 cd1b 3c40 8e52 0640
00000120: 342d 9abe b732 dabe b8eb f53e 9315 d63c
00000130: 9703 8ebf 0edc 2ac0 6444 b6be 039e a940
00000140: 93cc 873e bc6e 13be a537 03bf a7c7 3abe
00000150: 74ed d33e f18d 41be e58c 14be ad30 343c
00000160: a0e0 aabd 5602 0a3f 2c04 9ebf 9245 06bf
00000170: 9b58 96bd 0687 323f 8a0a 933f fe7b a0c0
00000180: 9a13 933f a6cf 563f b668 e03d 032b b0bf
00000190: e706 27bc a0fd e6c1 1820 0b3f 0670 09c0
000001a0: 78e6 84be 11f0 81bf 5e7d 68be 4bc6 c93e
000001b0: de80 70c0 3147 d73e 777f a8be 30c5 14bf
000001c0: 4e85 453d 80d0 a93d 1dcc 6dbc 6c57 3dbe
000001d0: d519 06bf dfd6 bcbd dfaa 8d3d ca52 9f3e
000001e0: 2a10 273f bc15 cd3e f41d c43e 1c19 f3be
000001f0: 9948 4c3e 8d97 d73e 8040 98bd 7d3b 663e
00000200: 0420 163a 951f 8540 f1f9 18bf 018e 6fc0
00000210: d485 12bf a4a1 2bbe ba96 98c0 a3ee e8be
00000220: 850c 7bbf d8fe 123f d01e 3e3f a1c9 c9be
00000230: b4d4 c83d 9663 11bf d27f 0dbf c4e6 03c0
00000240: b708 10c0 75ae 70bc 8265 c9bf 3adc b8bf
00000250: 12de 83bf 0ceb 2bbf 8b28 8fbf dce7 5ebf
00000260: e19f 14bf dae1 99bf 9602 aebf e089 3e3f
00000270: f715 a8be ab74 f0c0 2f29 82bf 18a1 d2bd
00000280: 9551 58c0 a7e3 0ebf 39b3 a0be 9fc6 73be
00000290: 8e0a d73e 1b62 02bf 3621 e33d 01ed aabe
000002a0: badb 78bf 5a68 39bf 580a 0dc0 fc6e 16bf
000002b0: bfa4 9abf eb93 863f 571e 1bc0 48e2 42c0
000002c0: a5a6 3ebf 8734 16bf 3544 89bf 24c2 f6bf
000002d0: c6a1 20bf 9ef8 5abf 8348 fa3d 3500 bec0
000002e0: 92bb ba3e 583c 1bbc 4850 5dbd b326 e6bc
000002f0: 5c55 fabb f90d c33e a6e6 013d 8b52 96bc
00000300: d8dd 1c3e 4a03 c53d e242 8ac1 1a04 e5c0
00000310: b73b f13f 0be3 2f3e 7fdb bfbe 208b b03d
00000320: a813 d73c a10a 503f a8df 8e3d 7e15 6e3e
00000330: 4193 3abf 6c7c 84be a876 b6bf bdba d7be
00000340: 18a5 0fbf aaa3 17c0 0a0f 12be 9e8b 31bf
00000350: 40ab a6c0 d14a bdbf f4f9 e3be 28ff 4fbf
00000360: 7734 8fbe 4182 a93e ca04 353e 7f15 6ebe
00000370: 6f1a ecbf 53a4 25bf 32cc d9bf 14f1 8bbe
00000380: 1ec6 40c0 e129 19c0 9bd1 78be 53a1 863f
00000390: 927e afbf 24dd 803e 4cdb 38be d5c0 97bf
000003a0: 241f a8bf 2898 a03d ead9 c4be fce4 08c0
000003b0: 1c9a 50be a461 0b3d 2714 07c0 924c 5cbd
000003c0: 4523 9d3e 24da d63e 080e 903e ed30 a2bd
000003d0: 9bf0 793d ca95 473d 5336 5fbf f0b8 acbf
000003e0: 6d77 20bf 397a f1be d235 a3be 28a1 d0bf
000003f0: 088b d1bf 4606 8fbf f732 453e c5e6 dabb
-0.45005393 -5.0708337 -0.79303604 -0.8966409 -2.1208224 -0.24351776 -0.12571505 0.055749714
-0.20430925 -0.30566794 -0.12555626 0.18554838 -1.6601405 -1.6669346 -1.2598524 -1.5577295
-1.6741471 -0.25774992 0.81464565 0.1686932 -0.76073295 -0.64065087 -0.49363777 0.13033693
-0.59918433 -0.70191103 1.0111159 -3.0272484 0.15641727 -1.0832077 -1.7610271 -0.3295689
-0.3146098 -0.43248895 0.015635626 0.14965355 0.036855098 -0.08309426 0.1641297 0.8497663
1.225236 1.5286027 0.65599144 0.59597695 0.5265816 0.15568395 0.32155442 0.3011584
0.16767493 0.6429907 0.624984 0.8679947 -0.5944674 3.9550257 -0.14285642 -0.16412519
-0.08548897 -0.18390107 0.23002595 0.0853805 0.904914 -0.0884761 0.0969381 0.65509677
-1.9611077 0.6604262 0.9661298 1.9063243 1.0053402 3.4927642 2.9391968 2.0987887
-0.30112612 -0.42616817 0.48031402 0.026133334 -1.1094846 -2.669681 -0.35599053 5.3005385
0.26523265 -0.1439771 -0.5125678 -0.18240224 0.413921 -0.18901803 -0.14506872 0.010997933
-0.08343625 0.53909814 -1.2345023 -0.52449906 -0.07341119 0.6973728 1.1487591 -5.015136
1.1490357 0.83910596 0.10957472 -1.3763126 -0.010194517 -28.87384 0.54345846 -2.1474624
-0.25957084 -1.0151387 -0.22704074 0.39409098 -3.7578654 0.42046502 -0.32909748 -0.58113384
0.048222832 0.08291721 -0.014513996 -0.1849038 -0.52383167 -0.09220671 0.06917357 0.3111785
0.6525904 0.40055645 0.38304102 -0.47480094 0.19949569 0.42107812 -0.074341774 0.2248363
0.00057268166 4.160105 -0.5975638 -3.7430422 -0.57235456 -0.1676088 -4.7683992 -0.45494565
-0.9806598 0.5742011 0.74265766 -0.39411643 0.09806195 -0.5679258 -0.55273163 -2.0609598
-2.250532 -0.014690031 -1.5734103 -1.4442208 -1.0302145 -0.6715553 -1.1184248 -0.8707254
-0.58056456 -1.202205 -1.3594539 0.7442913 -0.32829258 -7.5142417 -1.0168818 -0.102846324
-3.3799794 -0.5581612 -0.31386736 -0.23806237 0.4200024 -0.5093095 0.11090319 -0.33383945
-0.97210276 -0.7242485 -2.2037563 -0.587631 -1.2081527 1.0513891 -2.4237268 -3.045061
-0.7447303 -0.586739 -1.072394 -1.9277997 -0.62746847 -0.8553561 0.12220862 -5.9375253
0.3647123 -0.009474836 -0.05403164 -0.028094625 -0.00763957 0.38096598 0.031714104 -0.018349906
0.15319002 0.09619768 -17.282658 -7.1567507 1.8846349 0.17176454 -0.3747215 0.08620286
0.02625449 0.8126622 0.06976253 0.23250386 -0.7288094 -0.25876176 -1.4254961 -0.42134658
-0.5611129 -2.3693643 -0.1426355 -0.69353664 -5.2084045 -1.4788457 -0.44526637 -0.8124871
-0.27969715 0.33107188 0.17677608 -0.23250388 -1.8445567 -0.64703864 -1.701544 -0.27332366
-3.012092 -2.393181 -0.24298708 1.0517982 -1.3710501 0.25168717 -0.18052405 -1.1855723
-1.3134503 0.078415215 -0.38447505 -2.138976 -0.20371288 0.034028664 -2.110605 -0.05378396
0.3069097 0.41963303 0.28135705 -0.07919488 0.061020475 0.048726834 -0.8719227 -1.3493938
-0.6268223 -0.4716356 -0.31877 -1.6299181 -1.6370554 -1.117379 0.19257723 -0.006680342

critic.0.bias f4 [64]
00000000: d72c 20c0 5e6f 4e40 e47e 5cc0 5de8 aebf
00000010: aa07 8640 c242 09c0 f9aa ddbf f444 7bc0
00000020: 730b 30bf 7579 cfbf 4e95 13c0 90e9 8dc0
00000030: e761 10c0 8b27 0abf 65ca 053f 25d0 23c0
00000040: 1ceb 45bf 9b65 9fbf 930b 91c0 d640 77c0
00000050: 9e61 29c0 7f07 46c0 a478 a4be 45aa 56c0
00000060: 8c52 00c0 11bf 7bbf 897b 61c0 d9f4 febf
00000070: 9858 d2bf fa18 5ac0 a56b a2bf b1ce 263c
00000080: d2d7 d0bf 743e 15c0 7e17 9ac0 a869 d6bf
00000090: 9660 40c0 c7d8 9ec0 3adf 39c0 86eb 71bf
000000a0: bb4f e1bf 8fec bebf 262e 1bc0 3941 a6c0
000000b0: 4cd8 ac3f caee f8bf 49dc cabf 1f1a 63c0
000000c0: 2319 1cc0 289a cdc0 50c2 6ac0 5ed0 5440
000000d0: d0f8 86c0 f9df d1bf b475 8cbf 9406 9fc0
000000e0: 4855 19c0 a8ad 95bf 80a2 03c0 7cbb 62c0
000000f0: 45dd bf3f c39b f7bf 098c 24c0 73a1 363e
-2.5027368 3.2255473 -3.4452448 -1.3664662 4.1884356 -2.1446996 -1.7317802 -3.9260836
-0.6876747 -1.6208941 -2.3059878 -4.434761 -2.2559755 -0.5396659 0.52261955 -2.5595791
-0.77311873 -1.2452883 -4.532663 -3.8633323 -2.646583 -3.0942075 -0.32123291 -3.3541424
-2.0050383 -0.9833842 -3.523165 -1.9918472 -1.6433287 -3.4077744 -1.26891 0.010181115
-1.6315863 -2.3319368 -4.8153677 -1.6750994 -3.0058951 -4.963962 -2.9042497 -0.94500005
-1.7602457 -1.4915942 -2.4246917 -5.1954618 1.3503509 -1.9447873 -1.5848476 -3.5484693
-2.4390342 -6.425068 -3.66811 3.3252177 -4.2178726 -1.6396476 -1.097342 -4.969553
-2.3958302 -1.1693621 -2.0567932 -3.5426931 1.4989401 -1.934441 -2.571047 0.17835025

critic.2.weight f4 [64, 64]
00000000: 158b 623e 01d3 a4be dde4 67be 218d acbe
00000010: 34cf acbd 88f7 97be f7f1 fabc 87f4 40bf
00000020: 2944 8ebe 4ea2 1dbd 85aa d0be b8ef 41bf
00000030: a704 babe 4e80 f2be 3091 aabe e6f8 cf3d
00000040: 603b 5ebe aa42 00bf 835e 013e b8a1 c4bd
00000050: 8dba 2e3e 26ff f0be 750b 513c be1b 81be
00000060: 3a15 c3be 3c66 27be 9cb3 c2bd 554a a2be
00000070: 2dfd 27be 97a3 5abf 86b2 60bd 2d63 d0be
00000080: c613 73be 8f03 11bf af60 4bbf 447b 543c
00000090: edb9 b0be 8d27 bf3e 5222 213f 8748 b7bd
000000a0: 8299 9bbd 8fa9 8bbd 214a 99be 6240 3abe
000000b0: 94bc 113e 70be 1b3d 68b3 e2bd 36f2 4bbe
000000c0: e7df 183e c4d3 3c3e 811a e6bd 5058 8abd
000000d0: 6dd4 fcbe a709 c6be 40eb b9be b6ed ebbd
000000e0: cf76 23be c016 6bbe b689 ed3d 743b a2be
000000f0: 799f 8abf e51b 19bf b089 8d3d 5921 90be
00000100: 9feb dbbf 1857 7d3b a0dc b6bd 0fc8 88bd
00000110: cb64 87be 7e53 8fbf 7479 f43d 2717 773c
00000120: a0be 9fbf 0ebb 21bf 8a65 33bc 3e0e 7fbd
00000130: 7f6d 37bf d627 0f3d cceb d13b e0ab 14bc
00000140: 6d99 1ac0 3fac 9fbe b939 343c d0c9 c4be
00000150: fc57 28be 554a e1be 5588 943e 15a7 28be
00000160: d839 97be e284 aabe 2a49 04bc 848d ebbe
00000170: 02b0 39be 345d 03be a618 ddbc b2b1 1a3d
00000180: 2614 98be 6862 a4be 5115 72be 3d08 f5bc
00000190: 38b7 773c 29cb 17bf 18a1 b13e 0974 20bf
000001a0: 623b 50bf 5068 87bf 2628 ce3d 4766 4fbe
000001b0: 3d05 4d3e 841a 9dbf 0b52 d93c 6c1f de3d
000001c0: a66d 01bd 5667 063f 1b43 4abe 8517 273d
000001d0: fa2e 4bbe 1e10 75bf 1717 98be 9a55 8e3d
000001e0: d9b4 f73c 2cdb ccbf 1ec7 76bd 5219 16be
000001f0: 7499 913d bdf9 07be f2b7 aebf 2337 fc3e
00000200: 90d7 73be f57e d7be b1bf 9bbf dfc1 3cbf
00000210: 95d1 43c0 2b64 353e 08ff 0bbf 7b02 df3c
00000220: 8391 8bbd ddbe 313d c171 7bbf e84f d4be
00000230: 3136 a9bc 7d91 1bbe 7570 b5bf 3ec3 9fbc
00000240: 8fe3 03bf f9a6 17bf edf1 7abf 1b9f c2bd
00000250: 7740 e2be 4538 98be e0d8 c83e 10a9 28bf
00000260: 96b0 08c0 11e4 913e dee0 9dbd d967 00be
00000270: 3211 9bbe 5171 13bf cf85 11bf ce8c 88bf
00000280: 368a 4ebf 6072 44bf 5974 3ebf c5b7 68bf
00000290: 5a72 8cbf 0167 b7be 79fd 63be 3be8 89bd
000002a0: cdd5 a2be 57d1 d33c 8684 863e 172b 5fbf
000002b0: 3216 a4bf fdda b9bd 5eec 1fbd 2332 e3bc
000002c0: 5f50 973e a859 96bd 02bf 00be 3e79 2a3f
000002d0: 65da 41bf b2d2 a2be eb43 90bf 3ee0 aabf
000002e0: ac50 96be a88c 74be 11da ffbd 828e cd3e
000002f0: 5159 dcbf 32e6 42bf 56a8 033e 5f13 fcbe
00000300: 58d4 e9be ccb0 9abe f2c8 19bf c309 9dbf
00000310: 1702 46bc e8fb 963e b2c3 893e 6384 bebe
00000320: 0077 313f 2248 92be 0735 5ebf 2a0e 18bf
00000330: 54d8 0d3c ed1d 45bf 54cf 55bf 6894 d33c
00000340: f4a2 4f3f 44fd 6a3e 537c a73e b3bc 363f
00000350: 1eaa a03e 4145 ed3e 95a5 86bf 7fe3 02bf
00000360: 13f1 49be ed84 4bbf 8972 273f e7b9 4ebe
00000370: ec47 00bf d727 efbe 2656 08bf 26fa a9be
00000380: f33a 4abf 80c0 f33e b0d0 9ebe 6ee9 97bf
00000390: c712 3bbe f464 a3bf 2fdf f2be e6b8 50be
000003a0: efad ee3d afbc 3bbf 7f91 f53d cc22 fabe
000003b0: 2133 a1bf c194 e4be 473e 903e 343a 2c3f
000003c0: c39f f8be 6ebf 62bf 30e9 28bd 9e5f c5bf
000003d0: be05 98be c33a 9f3e 362d 28bf c5b7 3dbf
000003e0: fcaf b83e fd10 373f 4111 74be 895d 2e3f
000003f0: 2cd8 a8be 8d7e 8bbf 6fa8 053d b5ac 4fbf
0.22123368 -0.32192233 -0.22645898 -0.33701423 -0.08437958 -0.2968104 -0.030632956 -0.7537312
-0.27786377 -0.038484864 -0.40755096 -0.75756407 -0.36331674 -0.47363514 -0.33313894 0.101548955
-0.21702337 -0.5010172 0.1263371 -0.09601158 0.17063351 -0.47069663 0.012759079 -0.25216478
-0.38102132 -0.16347593 -0.09506914 -0.31697336 -0.16405173 -0.8540587 -0.054857753 -0.40700665
-0.23738012 -0.56646055 -0.794444 0.012968842 -0.3451685 0.37334862 0.62942994 -0.0894938
-0.07597639 -0.0681945 -0.29939368 -0.18188623 0.14232093 0.038023412 -0.11069375 -0.19916615
0.14929162 0.18440157 -0.11235524 -0.067551255 -0.49380818 -0.3867924 -0.36312294 -0.11519949
-0.1596329 -0.22957897 0.11598532 -0.31685984 -1.0829917 -0.5980819 0.069110274 -0.28150442
-1.7181281 0.0038656648 -0.089288 -0.06678783 -0.26444086 -1.1197355 0.11937228 0.015081204
-1.2480049 -0.6317605 -0.010949502 -0.06226944 -0.7165145 0.0349501 0.006406283 -0.009074181
-2.4156144 -0.311861 0.01100009 -0.3843522 -0.16439813 -0.44002023 0.29010263 -0.16469987
-0.2953632 -0.33304507 -0.008074084 -0.46006405 -0.18133548 -0.12828523 -0.026989292 0.03776712
-0.29702872 -0.32106328 -0.23640944 -0.029911155 0.015119366 -0.5929437 0.34693217 -0.62677056
-0.8134061 -1.0578709 0.100662515 -0.2025386 0.2002153 -1.2273717 0.026528379 0.10845837
-0.03159871 0.5250143 -0.19752161 0.040793914 -0.19842139 -0.9572772 -0.29705116 0.06949921
0.030237602 -1.6004386 -0.060248487 -0.14658096 0.07109347 -0.13278861 -1.3649886 0.49260816
-0.238127 -0.42089048 -1.2167875 -0.73733324 -3.0596669 0.17713992 -0.5468602 0.027222862
-0.068148635 0.043394912 -0.9822045 -0.41467214 -0.020655723 -0.15192218 -1.4174944 -0.019502278
-0.515191 -0.59239155 -0.980254 -0.09503003 -0.44189808 -0.2973043 0.39227962 -0.6588297
-2.135778 0.28494313 -0.07708906 -0.12539615 -0.30286556 -0.5759478 -0.568448 -1.066797
-0.80679643 -0.7673702 -0.7439628 -0.9090541 -1.0972397 -0.35820773 -0.22264661 -0.067337476
-0.31803742 0.025856657 0.26272982 -0.87175125 -1.2819273 -0.09074972 -0.039043777 -0.027733868
0.29553506 -0.07341319 -0.12572864 0.6659125 -0.7572387 -0.31801373 -1.1270727 -1.3349683
-0.29358423 -0.23881781 -0.12492765 0.40147787 -1.7214757 -0.761325 0.12857184 -0.4923353
-0.45669818 -0.3021301 -0.60072243 -1.2268604 -0.012085459 0.29489064 0.26907116 -0.37210378
0.69322205 -0.28570658 -0.86799663 -0.5939661 0.008657534 -0.7699879 -0.8351948 0.025827602
0.8110802 0.22948176 0.3271204 0.7138168 0.3137979 0.463419 -1.0519282 -0.5112838
-0.19720869 -0.79499704 0.6540914 -0.20188104 -0.50109744 -0.46710083 -0.5325645 -0.3319866
-0.789962 0.47607803 -0.3101859 -1.1868112 -0.18268882 -1.2765183 -0.474359 -0.20383033
0.11654269 -0.73334783 0.11990642 -0.48854673 -1.2593728 -0.4464474 0.28172514 0.6727631
-0.4855939 -0.8857335 -0.04123801 -1.5419805 -0.2969188 0.3109952 -0.65693986 -0.74108535
0.36071765 0.715103 -0.23834707 0.68111473 -0.32977426 -1.0897995 0.032631334 -0.81122905

critic.2.bias f4 [64]
00000000: 499b fbbe f184 d140 2b62 68bf 3999 11be
00000010: 0f4d 5dbf c34f 02bf fe17 43bf 65cc 85bf
00000020: 6f0d f4be fdd4 acbe 9fd4 f83d 2105 b83f
00000030: 24cb 2dbf 14ec e33f d22d 35c0 2f5b f9be
00000040: 86da 8740 6bed 5fbf 4fcc b5bf 5bc0 f5be
00000050: d3dd 2fbf e6a0 92bf bc62 433f 723b 7fbf
00000060: f156 0c3f e370 58bf 71fc c13e dd36 c13f
00000070: dd6d 5f3f 656a e6be f395 093f 19a0 7140
00000080: 0c56 1ebf a57a b03f 55ab 2bbf ba43 8d3e
00000090: 9cbc 98bf 2a40 29c0 7282 b7bf 6082 d7be
000000a0: 604f 9fbf 4a80 a0be c26b 3cbf e758 90bf
000000b0: 430a d3bf 7854 0abf 7bcb b8be 0bf2 05c0
000000c0: a562 a0be aa45 a640 e669 523f 7fae dd3d
000000d0: 12bb 03bf ffc7 3bbf 9755 e1bf e154 91bf
000000e0: 11a1 21bc d94b d13f 2c1e 8c3e 32da 41bf
000000f0: 6d61 d23e 4dda 4b40 531f 1dbc 64f6 b4bf
-0.4914191 6.547478 -0.9077479 -0.14218606 -0.8644571 -0.50902957 -0.76208484 -1.0453001
-0.476665 -0.33756247 0.12149929 1.4376565 -0.67888093 1.780642 -2.8309216 -0.4870238
4.245425 -0.87471646 -1.4202975 -0.47998318 -0.6869785 -1.1455352 0.7632253 -0.9970008
0.5482016 -0.8454725 0.3788791 1.5094868 0.87277013 -0.45003048 0.5374443 3.7753966
-0.6185005 1.3787428 -0.67058307 0.27590734 -1.1932559 -2.6445413 -1.4336684 -0.42091656
-1.2446098 -0.31347877 -0.73601925 -1.1277131 -1.6487507 -0.5403514 -0.36092743 -2.0928981
-0.3132526 5.196004 0.8219284 0.10824298 -0.5145732 -0.73352045 -1.7604245 -1.1354028
-0.009865061 1.6351272 0.2736677 -0.75723565 0.41089955 3.185199 -0.009589988 -1.4137692

critic.4.weight f4 [1, 64]
00000000: d16e 70bd 18da 053e d337 a2bd f41b 9f3c
00000010: 3a07 e6bc 6ef5 fe3e e01e 77bc 50f3 aebd
00000020: cbb7 d6bb 6e7b 753e 309a 18bf 9be0 e0be
00000030: 3da8 b83c 215c b43d bc36 31be a7b8 02be
00000040: 7fe9 853d 5452 da3b 639d 4c3e f6cd 87bd
00000050: f158 37bb a858 23bf 6763 9c3e cd27 413e
00000060: 3626 d0bd 3aa7 4dbb a057 33bd bf99 813d
00000070: c90c 3bbe bdea 8cbb 193e 4cbe 44e2 833d
00000080: 5063 d83c 431a 30be d4f1 c6bd e9a9 90be
00000090: 8107 50be 9116 2b3d 36d5 2dbe 8693 83bd
000000a0: 42fd 1fbe ee5f 40be b7d1 0ebe b2d2 bebe
000000b0: 0318 b9bc 4c8c 87be 8404 01be 73a4 3abd
000000c0: 4e02 a33b 4723 ac3d c932 323f 185c 04bf
000000d0: 0ad3 3f3f 0b98 c9bd 3401 2ebe 423a 58be
000000e0: 81f8 d1bc 3ff2 e7bd c6ea 8a3e c8be 183d
000000f0: 9def b93e d8c6 3bbe 1b3c a1be 9585 adbd
-0.058699433 0.13071477 -0.07920804 0.019422509 -0.028079618 0.49796623 -0.015083045 -0.08542502
-0.0065526715 0.23972866 -0.5961027 -0.4392136 0.02254116 0.08806635 -0.17306036 -0.12765752
0.065386765 0.0066626463 0.19981913 -0.06631081 -0.0027976597 -0.63807154 0.30544588 0.18862839
-0.10163538 -0.0031380192 -0.043784738 0.06328153 -0.18266596 -0.004300444 -0.19945563 0.06439641
0.026414543 -0.17197518 -0.09714094 -0.2825463 -0.20315363 0.041769568 -0.16975865 -0.06424622
-0.15623954 -0.18786594 -0.13947187 -0.37270123 -0.022594457 -0.26474226 -0.12599379 -0.045566987
0.00497464 0.08405166 0.6960874 -0.51703024 0.74931395 -0.09843453 -0.16992646 -0.21115974
-0.025631191 -0.11325502 0.27132243 0.03729132 0.36315623 -0.18337572 -0.3149117 -0.084727444
